src/connect4_model_32_0.001.pth (torch, 383922 bytes, 12 tensors)

board_conv.0.weight f4 [32, 6, 3, 3]
0.1559414 0.058472853 0.090996355 -0.15400423 0.044025484 0.026222743 -0.03207729 0.010623436
-0.13246971 -0.111447014 -0.07893268 0.03654468 0.1307336 -0.106138244 0.08268902 0.035801444
-0.1157741 -0.122443594 0.10335968 -0.15265685 0.14218701 0.0931313 -0.18649691 -0.0036088899
-0.060878597 -0.079371266 0.08330711 -0.084928036 -0.03326074 -0.1102661 0.106194705 -0.065537766
-0.10436884 -0.124698974 0.01158235 0.0030283404 -0.017565534 0.1509443 0.014180233 -0.06521357
-0.1472602 0.10838491 -0.23325579 -0.027282258 -0.014777879 0.058956638 0.024937797 -0.024124183
-0.1032504 -0.016001731 0.12699792 -0.17252561 -0.13286981 0.04289608 -0.08689346 0.10639241
0.17069982 0.069752805 -0.14264333 0.04456049 -0.0154311545 -0.038312994 -0.04122104 0.012128278
-0.098992035 0.13858064 0.036017954 0.022990702 -0.09845984 -0.14952482 0.020523194 -0.002299115
0.2049463 0.01789527 0.02131922 -0.027033664 -0.05156304 -0.032100856 -0.22507633 -0.36791724
-0.044540327 0.006607039 0.09797753 0.11302313 -0.037515614 0.0552615 0.059381668 0.05690874
-0.24206868 0.06313681 -0.02155 -0.08975931 0.01089007 -0.05806903 0.09013344 -0.046103913
0.149507 -0.2134061 0.07700996 0.108394854 0.03325884 -0.037500966 -0.108829774 0.015205973
0.00069317874 -0.0064994334 -0.21686795 0.11832957 -0.017519152 -0.034949467 -0.14323059 -0.11219611
-0.11879741 -0.10668371 0.09343403 0.18135619 -0.07994492 -0.031820204 -0.050068017 -0.058895335
0.10498632 0.15502894 -0.06693034 -0.07891034 0.19367744 0.09196207 -0.11744931 -0.07179366
-0.07646222 -0.084496394 -0.08372067 -0.057434954 0.10774974 0.2336399 -0.08434133 0.05462177
-0.13732426 -0.037879523 0.06516121 0.025451584 0.02125078 -0.038032953 0.11244286 0.050711308
-0.06187021 -0.20966187 -0.068588294 0.028092824 0.11842278 0.02512626 -0.09272316 -0.101022996
0.105293825 -0.06356232 -0.020607263 -0.06994551 -0.17443587 -0.08868308 0.065205805 0.023397049
0.045463935 -0.024534587 -0.108139 0.025467517 -0.015519315 0.16819301 -0.02467262 0.13534607
0.1521704 -0.16963206 0.08905483 0.091253586 0.024448816 -0.04076433 -0.03026354 0.06261053
-0.1373278 0.05328766 0.09824033 0.050496735 0.046689775 0.14495657 0.12491359 0.29325864
0.21937026 -0.15683383 0.030573469 -0.03573611 0.08691345 -0.10756171 0.024156544 -0.021578396
0.15971166 0.021666132 -0.034076598 0.00093936105 0.09225294 -0.058897424 0.1001044 -0.0051284856
0.038122762 -0.04999498 0.1823657 -0.14881358 -0.055790592 -0.091650255 -0.09869577 0.13625167
0.07053693 -0.030893615 0.123600796 -0.10589305 -0.105673075 0.0889402 0.022312623 -0.17227727
-0.094828084 -0.12176319 -0.15300317 -0.08743536 -0.082768396 0.08953085 -0.03881022 -0.049716745
0.07884309 -0.123630665 -0.021035772 -0.19727719 -0.05794267 -0.13855262 -0.08728619 0.0063711056
0.026045254 -0.054756347 -0.1802043 -0.04074857 -0.09265143 -0.12903462 -0.043693878 -0.09382383
8.367095e-05 -0.093552016 0.085933566 -0.08224371 0.05227624 -0.28620654 -0.05116195 -0.046774432
0.16894907 0.06270613 0.13142866 -0.1573055 0.011968998 0.05820934 -0.27373093 -0.021074515
00000000: 1aaf 1f3e 3b81 6f3d 4c5c ba3d 49b3 1dbe
00000010: 1154 343d 14d1 d63c 7a63 03bd ec0d 2e3c
00000020: 24a6 07be 553e e4bd 75a7 a1bd e0af 153d
00000030: 07df 053e 025f d9bd dc58 a93d 89a4 123d
00000040: f91a edbd b5c3 fabd 3dae d33d 1452 1cbe
00000050: 7999 113e 9fbb be3d 0cf9 3ebe 2083 6cbb
00000060: d65b 79bd 678d a2bd eb9c aa3d c0ee adbd
00000070: 6a3c 08bd 31d3 e1bd 9c7c d93d aa38 86bd
00000080: 55bf d5bd 2d62 ffbd e6c3 3d3c 1f77 463b
00000090: 98e5 8fbc 2591 1a3e 3554 683c b18e 85bd
000000a0: 61cb 16be e8f8 dd3d 9bda 6ebe 0b7f dfbc
000000b0: eb1e 72bc 847c 713d 5a4a cc3c 14a0 c5bc
000000c0: f274 d3bd 1016 83bc be0b 023e 8eaa 30be
000000d0: 060f 08be cdb3 2f3d 33f5 b1bd 44e4 d93d
000000e0: efcb 2e3e 8fda 8e3d 1811 12be 0f85 363d
000000f0: f4d2 7cbc 16ee 1cbd 65d7 28bd afb5 463c
00000100: 56bc cabd 15e8 0d3e 9087 133d ff56 bc3c
00000110: 50a5 c9bd 091d 19be 4220 a83c c0ac 16bb
00000120: 71dd 513e 1a99 923c a5a5 ae3c b475 ddbc
00000130: c433 53bd 307c 03bd 697a 66be a65f bcbe
00000140: eb6f 36bd dc7f d83b 71a8 c83d ac78 e73d
00000150: f9a9 19bd e259 623d 313a 733d 2419 693d
00000160: dae0 77be df4d 813d a089 b0bc bbd3 b7bd
00000170: 446c 323c cbd9 6dbd e297 b83d 75d7 3cbd
00000180: 5d18 193e 2187 5abe 66b7 9d3d 1ffe dd3d
00000190: 6c3a 083d 9d9a 19bd 25e2 debd 7922 793c
000001a0: 70b6 353a 33f9 d4bb a212 5ebe c656 f23d
000001b0: 5384 8fbc 2c27 0fbd 0aab 12be 13c7 e5bd
000001c0: 0e4c f3bd fd7c dabd 575a bf3d 70b5 393e
000001d0: 2aba a3bd e755 02bd 1f14 4dbd 3c3c 71bd
000001e0: 1103 d73d e8bf 1e3e c612 89bd bf9b a1bd
000001f0: 6153 463e 9c56 bc3d 4489 f0bd 8e08 93bd
00000200: 3998 9cbd 720c adbd be75 abbd ea40 6bbd
00000210: e5ab dc3d 4c3f 6f3e 26bb acbd 14bb 5f3d
00000220: bb9e 0cbe 8f27 1bbd 3e73 853d d77f d03c
00000230: 1e16 ae3c 71c8 1bbd 7148 e63d a9b6 4f3d
00000240: 9e6b 7dbd 9ab1 56be 0578 8cbd ec22 e63c
00000250: a487 f23d 96d5 cd3c a4e5 bdbd 25e5 cebd
00000260: 4aa4 d73d f62c 82bd 90d0 a8bc 973f 8fbd
00000270: 519f 32be 7a9f b5bd 9f8a 853d 2bab bf3c
00000280: 6438 3a3d c2fc c8bc fb77 ddbd 41a1 d03c
00000290: ba44 7ebc ca3a 2c3e 3c1e cabc 2998 0a3e
000002a0: 8fd2 1b3e 07b4 2dbe 6162 b63d 29e3 ba3d
000002b0: e248 c83c 80f8 26bd 3eeb f7bc f339 803d
000002c0: a99f 0cbe 2944 5a3d 3a32 c93d aad5 4e3d
000002d0: c73d 3f3d 7f6f 143e b2d2 ff3d ff25 963e
000002e0: 99a2 603e 0c99 20be 3675 fa3c 0760 12bd
000002f0: aeff b13d 5049 dcbd f2e3 c53c 2dc5 b0bc
00000300: 748b 233e 2c7d b13c e793 0bbd 743f 763a
00000310: 1cef bc3d 6d3e 71bd 8903 cd3d db0c a8bb
00000320: 9d26 1c3d 89c7 4cbd 13be 3a3e 9662 18be
00000330: ad84 64bd 21b3 bbbd 0221 cabd 8f85 0b3e
00000340: aa75 903d 9b14 fdbc 6a22 fd3d 75de d8bd
00000350: 206b d8bd 4826 b63d f6c8 b63c 7469 30be
00000360: 3a35 c2bd fb5e f9bd ddac 1cbe 4f11 b3bd
00000370: 7a82 a9bd f35b b73d 77f7 1ebd c9a3 4bbd
00000380: 7c78 a13d 1332 fdbd 3653 acbc 0803 4abe
00000390: 4b55 6dbd bde0 0dbe 1ac3 b2bd b5c4 d03b
000003a0: db5c d53c 3148 60bd 7a87 38be f9e7 26bd
000003b0: 08c0 bdbd a721 04be 5af8 32bd b526 c0bd
000003c0: 8078 af38 3398 bfbd f0fd af3d 646f a8bd
000003d0: 9c1f 563d aa89 92be 318f 51bd 8c96 3fbd
000003e0: fc00 2d3e 126c 803d 3c95 063e b114 21be
000003f0: 9e19 443c eb6c 6e3d 7626 8cbe 76a4 acbc

board_conv.0.bias f4 [32]
-0.16891259 -0.111175396 0.038456053 -0.018408969 -0.0034622294 0.040167563 -0.0074712904 0.06805826
-0.111384876 0.058873985 0.058381904 -0.0749161 0.03883212 -0.10894463 0.06562077 0.00034674094
-0.08342557 0.05583494 -0.039822977 -0.024084238 -0.031716377 0.04708319 -0.024442697 0.007906948
0.05820654 -0.062439796 -0.029205771 -0.042484365 -0.053479705 0.109318025 0.04719936 -0.1058032
00000000: 6cf7 2cbe edaf e3bd 1884 1d3d 68ce 96bc
00000010: 92e6 62bb be86 243d bad1 f4bb 2162 8b3d
00000020: c11d e4bd d925 713d dd21 6f3d 9d6d 99bd
00000030: 6e0e 1f3d 5d1e dfbd 2f64 863d c8ca b539
00000040: 06db aabd 2eb3 643d 6b1d 23bd 4f4c c5bc
00000050: 08e9 01bd 4eda 403d 0d3c c8bc 258c 013c
00000060: fb69 6e3d dfc0 7fbd f140 efbc 1604 2ebd
00000070: 890d 5bbd 21e2 df3d 1e54 413d 59af d8bd

board_conv.3.weight f4 [128, 32, 3, 3]
-0.054810595 0.01751363 -0.04638883 -0.042745627 0.037052345 0.02502925 -0.030586991 -0.039958246
-0.03620494 -0.0031940255 -0.0038815069 -0.10713092 -0.05272082 -0.050631966 -0.023845004 -0.030861981
-0.07358321 -0.088293396 -0.0085916 -0.055043895 0.033020496 -0.03373121 -0.030643487 -0.07185444
-0.05362398 -0.045490343 -0.037718955 0.017625041 0.008401779 -0.03414431 -0.014545595 -0.03269406
-0.11819359 -0.005834435 -0.09997507 -0.006083326 -0.033771012 -0.0042983745 0.09300485 0.035841353
0.034633037 -0.030505698 -0.022163967 -0.03965148 0.050083663 0.0182389 0.0771131 0.021495398
0.018999437 -0.028708078 -0.04966935 -0.047385734 0.015189973 0.00340254 0.0018136492 -0.014913867
-0.0121570155 -0.03202102 -0.07035281 -0.08546753 -0.013912288 -0.03396896 0.03266739 -0.04233658
0.07601972 -0.0018312732 -0.06720995 -0.07122736 -0.05564542 0.005915972 -0.031371735 0.043904908
0.038038097 -0.0035757136 0.04918698 -0.028753944 0.054433025 -0.0036900511 -0.02819173 -0.019894825
0.038686857 0.049115986 0.07330885 0.049027316 -0.01612813 -0.005794445 -0.03504909 -0.019005
-0.05179073 -0.0022035572 -0.0006088509 0.025104884 0.02332393 0.024498884 0.048704 -0.04557113
0.008239972 -0.05998442 -0.01278773 -0.05907415 -0.016583042 -0.100941725 -0.029896699 -0.02782644
0.029299643 0.04112295 -0.03252585 0.05095552 -0.02199277 0.037865844 0.10900491 -0.0028650626
0.017592642 0.014055896 -0.058508936 0.011196071 -0.046136726 -0.033667304 0.103036225 -0.014519724
-0.07277693 0.00808805 -0.02207375 -0.019344578 -0.0014375693 0.025060274 -0.03917648 0.013338206
-0.060123276 0.04106938 0.019977463 -0.026147824 -0.022059113 -0.075577214 -0.03101824 0.02709001
-0.0033418892 -0.016618926 0.002192656 -0.039162267 -0.034956146 -0.055484906 -0.029444309 0.0072715646
-0.055920523 -0.084825195 -0.05190313 0.002080416 -0.105009586 -0.016456734 -0.034134906 -0.04614413
-0.035060383 0.026850315 0.008709563 0.060767837 0.028890569 -0.04295671 -0.03349731 0.013327868
-0.03117836 0.013260065 -0.06895138 -0.07513702 0.016845971 -0.04039998 -0.04981578 0.0012714992
0.025068635 0.010362568 -0.04796464 -0.026351174 0.045614794 -0.033642575 -0.040490706 -0.039064713
-0.048612464 0.032995872 -0.08644849 -0.070657894 -0.010781942 -0.08157221 0.036399815 -0.058038022
-0.012281023 -0.07607097 -0.06853677 -0.08401273 0.072479635 0.02966161 -0.08480543 -0.01079646
0.062246244 -0.056636736 -0.038277436 0.0028577456 -0.09451308 -0.008940322 0.0019003632 0.03371134
0.038050503 -0.011093594 0.054453883 -0.05826016 0.0062664542 -0.042566676 -0.03797833 -0.000756006
-0.03742783 0.0022413046 -0.00865462 0.015729036 -0.02961245 -0.023490667 0.034428436 0.039677437
-0.027768059 0.13648234 0.05729254 -0.052152067 0.025708107 -0.014360328 -0.05632531 -0.06904515
0.060591985 -0.041326888 -0.012426207 0.036615882 -0.098488025 -0.04046924 -0.08296082 -0.071285754
-0.023061758 0.081217594 -0.0415703 0.039771426 -0.017891819 0.057633985 -0.041633382 -0.07422387
0.050039474 -0.080026075 0.001632282 -0.067777604 0.062169895 -0.029663626 -0.0383986 -0.098128684
-0.092701845 0.046805922 -0.05017695 0.11126345 0.01663513 -0.05824542 -0.021135427 0.0033199945
00000000: 1381 60bd bf78 8f3c 3702 3ebd 0a16 2fbd
00000010: 33c4 173d 240a cd3c 9291 fabc 42ab 23bd
00000020: a24b 14bd db52 51bb e160 7ebb 7567 dbbd
00000030: c9f1 57bd 7763 4fbd 9956 c3bc 44d2 fcbc
00000040: cbb2 96bd 2bd3 b4bd c8c3 0cbc b575 61bd
00000050: 8040 073d bd29 0abd 0d08 fbbc 6c28 93bd
00000060: d2a4 5bbd 1554 3abd 317f 1abd 6462 903c
00000070: 9ea7 093c e7da 0bbd a650 6ebc 35ea 05bd
00000080: 7b0f f2bd ca2e bfbb bbbf ccbd a356 c7bb
00000090: 7953 0abd 61d9 8cbb 5479 be3d 62ce 123d
000000a0: 5fdb 0d3d 16e7 f9bc 3591 b5bc 9769 22bd
000000b0: 8724 4d3d bf69 953c 79ed 9d3d 1e17 b03c
000000c0: b5a4 9b3c 342d ebbc 1772 4bbd 8b17 42bd
000000d0: 5ddf 783c 26fd 5e3b f8b7 ed3a 4b59 74bc
000000e0: 382e 47bc 7928 03bd 2215 90bd 9a09 afbd
000000f0: 5df0 63bc 0923 0bbd 3ece 053d 1f69 2dbd
00000100: 3ab0 9b3d 5507 f0ba 5fa5 89bd a6df 91bd
00000110: 74ec 63bd c5da c13b a67f 00bd a2d5 333d
00000120: d6cd 1b3d 8556 6abb 4978 493d 648d ebbc
00000130: 2af5 5e3d c9d4 71bb 58f2 e6bc 79fa a2bc
00000140: 1c76 1e3d d82d 493d f322 963d ded0 483d
00000150: 241f 84bc 54df bdbb a28f 0fbd 60b0 9bbc
00000160: 8422 54bd 8e69 10bb 4b9b 1fba c2a8 cd3c
00000170: d411 bf3c e2b1 c83c d87d 473d cba8 3abd
00000180: f300 073c 39b2 75bd a183 51bc bcf7 71bd
00000190: 29d9 87bc 89ba cebd ece9 f4bc 46f4 e3bc
000001a0: ce05 f03c 8a70 283d d339 05bd bcb6 503d
000001b0: 2e2a b4bc 3719 1b3d f73d df3d c6c3 3bbb
000001c0: 721e 903c b34a 663c 11a7 6fbd ba6f 373c
000001d0: ddf9 3cbd bae6 09bd a804 d33d 23e4 6dbc
000001e0: 120c 95bd be83 043c 02d4 b4bc 8578 9ebc
000001f0: d26c bcba 344b cd3c 8477 20bd 7e88 5a3c
00000200: d343 76bd 5e38 283d c7a7 a33c f633 d6bc
00000210: 50b5 b4bc 3ac8 9abd f719 febc deeb dd3c
00000220: 9903 5bbb 6a24 88bc aab2 0f3b 9d68 20bd
00000230: 2d2e 0fbd 2444 63bd 3135 f1bc 4e46 ee3b
00000240: eb0c 65bd d5b8 adbd 6098 54bd 9757 083b
00000250: 440f d7bd 46d0 86bc 0bd1 0bbd a101 3dbd
00000260: 7a9b 0fbd 31f5 db3c 8eb2 0e3c b2e7 783d
00000270: eaab ec3c 60f3 2fbd 7a34 09bd 215d 5a3c
00000280: c369 ffbc be40 593c 6236 8dbd 70e1 99bd
00000290: 9000 8a3c 737a 25bd a20b 4cbd 6fa8 a63a
000002a0: bd5c cd3c c3c7 293c 9276 44bd 6bde d7bc
000002b0: 94d6 3a3d cccc 09bd 95d9 25bd 5202 20bd
000002c0: dd1d 47bd ae26 073d e80b b1bd 16b5 90bd
000002d0: bea6 30bc 550f a7bd f917 153d 47b9 6dbd
000002e0: 5836 49bc 19cb 9bbd 025d 8cbd de0e acbd
000002f0: 3470 943d e8fc f23c 78ae adbd a3e3 30bc
00000300: ebf5 7e3d ecfb 67bd cdc8 1cbd 0449 3b3b
00000310: 1390 c1bd 6e7a 12bc 9c15 f93a e714 0a3d
00000320: d8da 1b3d e8c1 35bc 090b 5f3d 35a2 6ebd
00000330: d456 cd3b 655a 2ebd 2a8f 1bbd b42e 46ba
00000340: ed4d 19bd dae2 123b 1bcc 0dbc 2eda 803c
00000350: cf95 f2bc 806f c0bc d504 0d3d cf84 223d
00000360: d779 e3bc 07c2 0b3e 95ab 6a3d 689d 55bd
00000370: cf99 d23c 9547 6bbc 5eb5 66bd 8b67 8dbd
00000380: 4d2f 783d 6246 29bd 4a97 4bbc 89fa 153d
00000390: 17b4 c9bd 13c3 25bd 5de7 a9bd 44fe 91bd
000003a0: 03ec bcbc 6955 a63d 9e45 2abd 5de7 223d
000003b0: dd91 92bc 9d11 6c3d c487 2abd af02 98bd
000003c0: 31f6 4c3d b6e4 a3bd 4cf2 d53a fcce 8abd
000003d0: dca5 7e3d 2201 f3bc da47 1dbd b1f7 c8bd
000003e0: 77da bdbd 91b7 3f3d 5886 4dbd 17de e33d
000003f0: 6546 883c c092 6ebd 3424 adbc 4494 593b

board_conv.3.bias f4 [128]
0.050910313 -0.007643151 0.010398108 0.0012148363 -0.028744116 0.032870375 0.038645845 0.01680551
-0.006744192 -0.033709396 -0.015097812 -0.05535196 0.026099555 -0.016976288 0.0053600324 -0.023284746
-0.13146973 -0.10500917 -0.010354365 -0.038612105 -0.06933994 -0.031606972 -0.069893144 0.00034218008
0.029205915 -0.036580868 -0.01113699 -0.021384165 -0.04224074 -0.10215302 -0.07743323 -0.056334134
-0.010416191 -0.015591056 -0.0070956754 -0.05747642 0.029164903 -0.051116027 -0.09581717 -0.035219654
0.0085104015 -0.06793582 0.031684715 -0.040734928 -0.011144611 -0.030011225 -0.030938566 -0.035927255
-0.024218062 -0.075161666 -0.019793332 -0.075701855 -0.015870882 -0.023329623 -0.022273412 -0.09247166
0.016811335 -0.046029177 -0.061054226 -0.0041700075 -0.024951624 -0.008452822 0.010953922 -0.038229693
-0.03755097 -0.047452953 -0.004061817 -0.010230197 -0.0017539274 -0.031816583 -0.04519336 1.5527476e-06
0.0024136729 -0.004347129 -0.079285055 -0.027334675 -0.06356307 -0.054376263 -0.01668145 -0.07868859
-0.007950776 0.00017301113 -0.08474156 -0.07280472 -0.032656968 0.030942949 0.009404008 -0.035175618
-0.014464691 -0.065479115 -0.08333137 -0.011193541 -0.06884866 -0.06337699 0.004459076 -0.012622903
-0.06277315 -0.053577594 -0.086197555 -0.0011611935 -0.016901195 -0.00477205 -0.0062706852 -0.032384813
-0.03950178 -0.020433335 0.024476578 -0.024570096 -0.038036443 -0.010636324 -0.002271927 -0.028301926
-0.0012104737 0.009931627 0.0044910465 0.047439642 -0.03959734 0.027303487 -0.028126426 -0.0056743296
-0.04328701 0.0023184207 -0.019455988 0.032384567 0.010432335 -0.06963978 0.0099880835 -0.09564728
00000000: 5587 503d 6673 fabb d35c 2a3c 243b 9f3a
00000010: c878 ebbc 16a3 063d 1b4b 1e3d b5ab 893c
00000020: 62fe dcbb dd12 0abd d05c 77bc bdb8 62bd
00000030: bcce d53c db11 8bbc 36a3 af3b a7bf bebc
00000040: 00a0 06be 0c0f d7bd 5ba5 29bc ba27 1ebd
00000050: 1902 8ebd 5076 01bd 2324 8fbd a266 b339
00000060: 3e41 ef3c d2d5 15bd ec77 36bc d82d afbc
00000070: a004 2dbd 9a35 d1bd 5095 9ebd 9fbe 66bd
00000080: aca8 2abc a171 7fbc d782 e8bb 656c 6bbd
00000090: 3ceb ee3c 0a5f 51bd cb3b c4bd 7c42 10bd
000000a0: 366f 0b3c ef21 8bbd d5c7 013d abd9 26bd
000000b0: e397 36bc 1ada f5bc e072 fdbc 7528 13bd
000000c0: f564 c6bc 5cee 99bd a025 a2bc 9309 9bbd
000000d0: a703 82bc c41d bfbc bb76 b6bc c861 bdbd
000000e0: edb7 893c 1789 3cbd ff13 7abd 8fa4 88bb
000000f0: 5967 ccbc b57d 0abc 1478 333c bd96 1cbd
00000100: 0ccf 19bd 075e 42bd fe18 85bb 8e9c 27bc
00000110: 0ae4 e5ba 1b52 02bd ac1c 39bd 0068 d035
00000120: b62e 1e3b 5c72 8ebb 3460 a2bd f8ec dfbc
00000130: 5b2d 82bd a5b9 5ebd 89a7 88bc 7c27 a1bd
00000140: f943 02bc 526a 3539 fc8c adbd a41a 95bd
00000150: 50c3 05bd 117c fd3c 4513 1a3c 4f14 10bd
00000160: 50fd 6cbc ea19 86bd a3a9 aabd 1d65 37bc
00000170: 8700 8dbd cccb 81bd 711d 923b 4bd0 4ebc
00000180: 368f 80bd 2e74 5bbd 5888 b0bd 3033 98ba
00000190: 6074 8abc db5e 9cbb 527a cdbb f0a5 04bd
000001a0: 9ecc 21bd cf63 a7bc 1b83 c83c 3a47 c9bc
000001b0: 1acc 1bbd fa43 2ebc 9ce4 14bb 71d9 e7bc
000001c0: c2a8 9eba 43b8 223c a129 933b 1250 423d
000001d0: d230 22bd 90ab df3c 6469 e6bc baef b9bb
000001e0: b84d 31bd a5f0 173b 2a62 9fbc aea5 043d
000001f0: 62ec 2a3c 4d9f 8ebd 0fa5 233c b9e2 c3bd

board_fc.0.weight f4 [64, 768]
-0.030308718 -0.021587618 -0.021191576 -0.03154033 -0.009907415 -0.022501394 0.014675895 0.028280813
0.009816963 -0.043092333 0.0012070198 -0.028885545 0.013293046 -0.026120745 -0.005335401 -0.0360988
0.018597214 0.019052364 0.021182023 0.008658598 -0.023750754 -0.01561319 -0.035511926 -0.026575696
-0.029533224 0.010987666 -0.034492053 0.0014550736 -5.865492e-05 0.0075349123 -0.0011962806 -0.008765988
0.017890686 0.013752956 -0.03003654 -0.019886345 -0.017317954 0.017678056 -0.014461706 0.011673877
-0.030367631 -0.01270245 0.021732902 0.006060644 0.025942495 -0.016698878 -0.0075583197 0.01637883
0.0136354035 -0.01060375 -0.0008319212 0.016107341 0.015677845 0.0069269207 0.03585885 0.015950074
0.012693223 0.02874682 -0.029887147 -0.0291659 -0.007098768 0.01383819 -0.024088021 0.030622026
-0.009311076 -0.035268508 -0.01996386 -0.006949676 0.006502523 -0.019872865 0.019538587 -0.021722833
-0.035712074 0.009671631 0.005868777 0.018557103 0.0020907756 0.020347161 -0.011211332 0.027122486
-0.009723228 0.014882197 -0.011873707 0.008224153 0.016343188 -0.015993569 0.01314737 0.026808608
-0.0028346328 -0.0006386747 -0.0052443957 -0.030444656 -0.0053690593 0.0045278766 -0.03365969 -0.026245335
0.026935216 -0.041037314 -0.028277926 -0.040049598 0.022506485 -0.013308349 0.00097396364 -0.031937882
0.020075576 0.022433998 -0.009710793 -0.015277292 0.020386944 -0.011598811 -0.0066816346 0.010488361
-0.019778784 0.027978156 -0.010095172 -0.018332696 0.0015736481 -0.023672236 -0.0006269617 0.013346862
-0.009424725 0.00016817552 0.021074854 -0.0068750093 0.030648395 -0.036878627 0.026264057 0.022170143
-0.03329948 0.004917945 -0.011962352 -0.021471238 0.0074022133 0.003846313 0.033070624 0.023282232
0.017073937 0.008758943 0.00031944737 0.01903569 -0.011919607 -0.036522973 0.0016419329 0.017811546
-0.035915565 0.009675545 0.016527658 -0.03463211 -0.019598091 0.013294501 0.032943904 -0.019575512
-0.02085486 -0.010767624 0.016528387 -0.015824178 -0.024482151 0.00839365 -0.0007088812 0.0034913803
-0.018899709 -0.023254827 -0.022203835 0.018341713 -0.032665476 -0.015847959 -0.0075376374 -0.052366477
-0.017525014 -0.024404177 -0.037037004 -0.004828896 -0.031459354 -0.006681643 -0.033043955 0.033996224
-0.052427042 -0.016753767 -0.008100607 0.0074492255 -0.0072382633 -0.03231898 0.034394216 0.008482242
-0.015381014 0.007954163 -0.008305166 -0.020429345 0.010031508 -0.019371243 -0.022480646 -0.027547263
-0.026719466 -0.039039515 0.013693603 -0.020517599 0.004913595 0.023464322 0.010186841 -0.03337503
0.019128203 0.013346517 0.032492954 -0.016410165 -0.035518162 -0.028142845 0.012068387 -0.04705979
-0.053728055 -0.002173203 -0.0053006057 0.018113945 -0.02658603 -0.020067276 -0.032536242 0.0019399684
-0.011083109 -0.019565664 0.0022444183 -0.034717396 -0.049224693 -0.021328313 0.012802948 -0.0011384365
0.028225357 0.002632809 -0.03503657 -0.024445016 -0.025564684 -0.031019254 0.02152371 -0.042459
-0.015315331 -0.04271551 0.016449861 -0.00082244 -0.0038956401 -0.01501232 0.012115676 0.021391192
-0.041020058 -0.001553628 -0.030683246 0.0020820124 0.016879922 -0.027259804 0.024332276 -0.00983349
0.0064986227 -0.006594791 -0.007146974 -0.036039427 -0.04522115 -0.024816098 0.0031779013 -0.008869092
00000000: fd49 f8bc 84d8 b0bc f599 adbc 6f30 01bd
00000010: b652 22bc d854 b8bc 2a73 703c 2aad e73c
00000020: 54d7 203c 9681 30bd dd34 9e3a 61a1 ecbc
00000030: 13cb 593c 2cfb d5bc 96d4 aebb 56dc 13bd
00000040: 2f59 983c b413 9c3c ec85 ad3c cbdc 0d3c
00000050: f190 c2bc 77ce 7fbc f474 11bd 46b5 d9bc
00000060: a9ef f1bc 9d05 343c 8a47 0dbd 2bb8 be3a
00000070: 3e04 76b8 6de7 f63b 84cc 9cba 389f 0fbc
00000080: 7d8f 923c 1454 613c 310f f6bc b0e8 a2bc
00000090: 62de 8dbc 92d1 903c cbf0 6cbc ca43 3f3c
000000a0: 8ac5 f8bc f01d 50bc 3309 b23c 5e98 c63b
000000b0: 5b85 d43c 16cc 88bc c8ab f7bb e52c 863c
000000c0: 0767 5f3c 5abb 2dbc 4915 5aba 8bf3 833c
000000d0: d36e 803c 39fb e23b bbe0 123d bba9 823c
000000e0: 3cf7 4f3c 737e eb3c e4d5 f4bc 53ed eebc
000000f0: c89c e8bb 93b9 623c 3e54 c5bc 0bdb fa3c
00000100: 7c8d 18bc b675 10bd 408b a3bc 1cba e3bb
00000110: 1e13 d53b 6bcc a2bc 630f a03c 15f4 b1bc
00000120: d346 12bd c375 1e3c df4e c03b 1105 983c
00000130: 6505 093b 17af a63c bcaf 37bc fa2f de3c
00000140: 2d4e 1fbc 75d4 733c f089 42bc 99be 063c
00000150: 26e2 853c f204 83bc 1168 573c ba9d db3c
00000160: 3fc5 39bb bc6c 27ba 2ed9 abbb 1267 f9bc
00000170: efee afbb 955e 943b bede 09bd 7500 d7bc
00000180: 3ea7 dc3c be16 28bd 1ca7 e7bc 0c0b 24bd
00000190: 855f b83c 430b 5abc 9851 7f3a 4cd1 02bd
000001a0: 8975 a43c 81c7 b73c 051a 1fbc 9b4d 7abc
000001b0: 8502 a73c f008 3ebc 9df1 dabb 60d7 2b3c
000001c0: 1e07 a2bc 7232 e53c 3866 25bc 732e 96bc
000001d0: de42 ce3a 47ec c1bc b05a 24ba ccac 5a3c
000001e0: 296a 1abc 4658 3039 2ca5 ac3c c247 e1bb
000001f0: 5812 fb3c 0b0e 17bd b827 d73c 299e b53c
00000200: 0965 08bd b626 a13b befd 43bc 73e4 afbc
00000210: 448e f23b 6d12 7c3b 1075 073d 61ba be3c
00000220: a4de 8b3c ab81 0f3c 807b a739 bcf0 9b3c
00000230: 754a 43bc 1d99 15bd 2036 d73a 85e9 913c
00000240: 331c 13bd 2d86 1e3c 0365 873c 66da 0dbd
00000250: 2d8c a0bc 2ed1 593c 30f0 063d d35c a0bc
00000260: d0d7 aabc b06a 30bc 8a66 873c b5a1 81bc
00000270: cb8e c8bc 8585 093c 36d4 39ba a4cf 643b
00000280: 90d3 9abc e880 bebc d1e4 b5bc 5c41 963c
00000290: 3ccc 05bd 94d3 81bc 49fe f6bb 3b7e 56bd
000002a0: 9e90 8fbc 45eb c7bc 1db4 17bd b73b 9ebb
000002b0: 86db 00bd aff1 dabb 1959 07bd a03f 0b3d
000002c0: bdbd 56bd 323f 89bc 69b8 04bc a218 f43b
000002d0: f42e edbb e860 04bd f3e0 0c3d 1af9 0a3c
000002e0: a600 7cbc 2d52 023c 6412 08bc 715b a7bc
000002f0: 325b 243c 71b0 9ebc 5529 b8bc ccaa e1bc
00000300: c8e2 dabc e6e7 1fbd 225b 603c 8614 a8bc
00000310: 3902 a13b 4038 c03c b5e6 263c 41b4 08bd
00000320: c0b2 9c3c 5aab 5a3c 5517 053d 9c6e 86bc
00000330: 7e7b 11bd d38b e6bc 7cba 453c c4c1 40bd
00000340: f311 5cbd 4c6c 0ebb b4b0 adbb b263 943c
00000350: f2ca d9bc 2164 a4bc b944 05bd 8a46 fe3a
00000360: ee95 35bc 2c48 a0bc 1717 133b d433 0ebd
00000370: d59f 49bd b7b8 aebc 75c3 513c 9737 95ba
00000380: dd38 e73c 358b 2c3b 8282 0fbd ea40 c8bc
00000390: 076d d1bc 171c febc 7e52 b03c 7de9 2dbd
000003a0: 27ed 7abc 75f6 2ebd dcc1 863c 0499 57ba
000003b0: ff4d 7fbb 3cf6 75bc d480 463c 953c af3c
000003c0: a604 28bd 1ba3 cbba 6e5b fbbc 5f72 083b
000003d0: c347 8a3c f44f dfbc 7b54 c73c a51c 21bc
000003e0: 66f2 d43b 1e19 d8bb 2a31 eabb 149e 13bd
000003f0: d039 39bd 214b cbbc 5644 503b ab4f 11bc

board_fc.0.bias f4 [64]
-0.040482324 -0.018058117 -0.018877657 -0.0005111803 0.027479274 0.032215852 -0.037489284 -0.009598337
-0.010068099 0.005595332 0.023553003 0.013405026 0.026789766 -0.026811233 -0.009752026 0.0104700755
0.01709936 0.016747886 -0.033722028 -0.013798934 0.06810736 -0.0068544555 -0.00665747 0.02784765
-0.03962795 0.022033958 0.016510224 0.026075676 -0.012507713 -0.045376357 0.0034031793 0.015697472
-0.03250694 -0.03359307 0.0046032 -0.0059395772 -0.037344012 -0.032851122 0.031363036 -0.049914584
-0.022130143 -0.012310199 0.03275539 0.018040005 0.0066665993 -0.04086222 -0.017896451 0.015713152
-0.019274924 -0.011667743 0.0075438675 -0.016264282 -0.0066257184 -0.039727177 0.06885566 0.059567094
0.07109698 -0.029970724 0.0038571386 0.051432513 -0.04350241 -0.04223962 0.015761878 -0.04188925
00000000: cbd0 25bd 9eee 93bc 51a5 9abc bb00 06ba
00000010: 371c e13c c5f4 033d 5d8e 19bd 5842 1dbc
00000020: abf4 24bc 0c59 b73b 3af2 c03c c1a0 5b3c
00000030: 3676 db3c 3ba3 dbbc f6c6 1fbc ae8a 2b3c
00000040: f513 8c3c dd32 893c 1c20 0abd ed14 62bc
00000050: df7b 8b3d 579b e0bb e826 dabb c120 e43c
00000060: eb50 22bd 8f80 b43c 7340 873c a89c d53c
00000070: 27ed 4cbc 8fdc 39bd e007 5f3b fc97 803c
00000080: ff25 05bd e398 09bd 71d6 963b c9a0 c2bb
00000090: 09f6 18bd e68e 06bd 8776 003d 3c73 4cbd
000000a0: 464a b5bc b8b0 49bc 842a 063d a2c8 933c
000000b0: 7d73 da3b 255f 27bd 949b 92bc deb8 803c
000000c0: 72e6 9dbc 102a 3fbc 8c32 f73b ac3c 85bc
000000d0: 8e1c d9bb f7b8 22bd 3204 8d3d a0fc 733d
000000e0: 4b9b 913d 2a85 f5bc 0cc8 7c3b e6aa 523d
000000f0: 952f 32bd 7403 2dbd 0e1f 813c 1094 2bbd

player_fc.0.weight f4 [32, 3]
-0.26272398 0.21536171 0.09341343 -0.49171486 0.20878908 0.31454575 0.3943954 0.45502824
-0.20118414 0.20184919 -0.012418394 0.5751926 0.008364571 -0.15391126 -0.2502862 0.5418287
0.47052315 0.26958182 -0.107491136 -0.056116056 -0.49802953 0.22419678 0.119816765 -0.44366887
0.3684158 0.19685316 0.5042046 0.49639907 0.23145422 0.24896646 0.15520176 -0.35343608
-0.36394367 0.203825 0.058448046 -0.17798278 0.083560355 -0.16875322 0.1141805 -0.48513207
-0.2780133 0.11677343 -0.16403002 0.47862992 -0.06779196 -0.29793167 -0.5332533 -0.21886376
0.5619139 0.5305964 0.051781703 -0.02105517 0.20053415 0.48573518 -0.5343028 -0.2603458
0.057187464 0.22082183 0.0012323912 0.077425465 -0.0047576274 0.01133366 -0.5566628 -0.5740141
-0.46943352 0.03332435 -0.019817008 -0.02723804 -0.5191842 -0.5078766 -0.41143486 -0.40933913
-0.5292131 -0.47542325 -0.19006737 0.024055725 0.10345018 0.48230243 -0.26802802 -0.30500108
-0.11108362 -0.52080303 0.34623945 0.34177333 -0.092691384 -0.4548207 -0.5041938 0.3926131
-0.5181755 -0.14808677 0.43436888 0.14298433 0.15395607 0.017329246 0.31455007 -0.29227224
00000000: c283 86be c887 5c3e 8a4f bf3d 0dc2 fbbe
00000010: cecc 553e 240c a13e 32ee c93e 76f9 e83e
00000020: 3703 4ebe 8eb1 4e3e 8576 4bbc d23f 133f
00000030: 8e0b 093c ea9a 1dbe 8325 80be 49b5 0a3f
00000040: 69e8 f03e a106 8a3e 5024 dcbd f3d9 65bd
00000050: bafd febe d793 653e 7e62 f53d 9128 e3be
00000060: ffa0 bc3e e093 493e 8d13 013f 0528 fe3e
00000070: 5602 6d3e 10f1 7e3e 36ed 1e3e 93f5 b4be
00000080: d356 babe 80b7 503e 3867 6f3d 1e41 36be
00000090: b121 ab3d a5cd 2cbe 77d7 e93d 3b63 f8be
000000a0: c257 8ebe e826 ef3d 7cf7 27be fb0e f53e
000000b0: 83d6 8abd 808a 98be 4a83 08bf d21d 60be
000000c0: 97d9 0f3f 2ad5 073f 0d19 543d e47b acbc
000000d0: d358 4d3e 48b2 f83e 11c8 08bf 0b4c 85be
000000e0: 673d 6a3d 1e1f 623e 3088 a13a 3e91 9e3d
000000f0: dfe5 9bbb d1b0 393c 7481 0ebf 97f2 12bf
00000100: 9759 f0be 1d7f 083d 4757 a2bc 4f22 dfbc
00000110: 41e9 04bf 3304 02bf 97a7 d2be e694 d1be
00000120: 827a 07bf ad6a f3be 05a1 42be 8310 c53c
00000130: b0dd d33d 58f0 f63e f83a 89be 1a29 9cbe
00000140: cf7f e3bd 5953 05bf 4c46 b13e eafc ae3e
00000150: fbd4 bdbd 42de e8be d812 01bf 9604 c93e
00000160: 26a7 04bf 0fa4 17be 9965 de3e 7c6a 123e
00000170: a9a6 1d3e 10f6 8d3c b50c a13e b5a4 95be

player_fc.0.bias f4 [32]
0.5488727 -0.5160748 0.11270662 -0.48489028 -0.0968088 -0.5174813 -0.44781548 -0.09966051
0.15715826 -0.50045997 -0.08126063 0.5458417 0.28446165 -0.25412893 0.3152803 -0.28357998
-0.56599617 -0.4333279 -0.09269241 0.08299372 0.07083756 -0.569033 0.054374967 -0.37052533
0.46758288 0.22554381 -0.23353653 -0.35940886 -0.5412838 0.3268367 -0.115491964 0.1498453
00000000: ec82 0c3f 7a1d 04bf bad2 e63d 8a43 f8be
00000010: b143 c6bd a879 04bf 1248 e5be cf1a ccbd
00000020: 18ee 203e 251e 00bf f96b a6bd 48bc 0b3f
00000030: f5a4 913e 301d 82be 6b6c a13e 6531 91be
00000040: 20e5 10bf 28dd ddbe 85d5 bdbd 9df8 a93d
00000050: 4813 913d 26ac 11bf 49b8 5e3d 7fb5 bdbe
00000060: 0667 ef3e f5f4 663e 3324 6fbe 7004 b8be
00000070: 9391 0abf 2457 a73e 0d87 ecbd 0c71 193e

fc.0.weight f4 [64, 96]
-0.023470892 -0.06050183 -0.07616787 -0.10225862 0.10065451 0.08334831 0.075221084 0.07439154
0.03699399 -0.0141326515 0.049179453 -0.1006735 -0.004164327 0.098309495 -0.03064549 -0.03772927
-0.083291516 0.04489112 -0.0013021097 -0.01809324 -0.022769893 0.011903286 -0.039539654 0.016818728
0.106512174 0.028502135 0.054914933 -0.13671127 0.02682981 0.089973316 0.0853137 -0.02135612
-0.006524577 -0.06891749 0.031705193 0.05895614 -0.026352284 0.05278111 -0.017049959 -0.026350386
-0.01178897 0.07042279 0.08777904 -0.087930456 0.05387436 0.044255737 -0.07299979 -0.0321444
0.07271203 -0.0728446 0.054703243 0.023286045 -0.056402028 -0.09985501 0.08809616 0.14316407
0.107182406 -0.05216746 -0.036216278 0.0002619832 -0.01984365 -0.023601048 0.09373898 0.08849797
0.026964182 0.07313706 -0.03490841 -0.090877794 0.082368016 0.06612433 -0.045446232 -0.084061354
-0.008183541 -0.053267635 0.08006834 0.054066144 0.0018033612 0.05076454 -0.06162777 -0.036616508
0.09456636 -0.08521843 -0.0014878715 -0.035097137 0.078186065 0.0622567 -0.1011671 0.10039706
-0.07776792 -0.025700543 0.076433696 -0.10444563 0.06363773 0.08327436 -0.035790917 0.054445427
0.057422053 -0.044832177 0.06763143 0.061208982 -0.06866992 -0.08040402 0.05494221 0.004632842
0.092858516 0.059270825 -0.04596883 0.058454823 -0.083039284 0.068377346 0.07007882 -0.0028200282
0.06709746 0.08526373 -0.057843342 -0.014416813 -0.04360302 -0.11084127 -0.07313294 0.014664973
-0.016874416 -0.081902616 0.044631384 0.10102706 -0.008236564 0.05934143 0.08990675 -0.02667497
-0.07498563 -0.0008899976 -0.009119576 0.099790044 -0.08136523 0.023242256 0.03315441 0.102036886
0.03528582 0.05134516 0.03338912 -0.053850174 -0.023522198 -0.09214448 0.014644867 0.024604313
-0.026604023 -0.043569285 0.052041404 -0.05628594 -0.020487828 0.015742056 0.035488058 0.0020125082
0.019681863 -0.04911952 -0.09178819 -0.09799588 0.06199237 -0.040279888 -0.097018935 0.09153202
0.028485186 -0.06852887 -0.058415145 -0.0008243823 -0.088640705 -0.03278657 -0.08136985 0.019259125
0.096239656 0.08569658 0.0896285 0.03103017 -0.040211372 0.038760167 -0.03078161 0.0016640218
-0.017754253 0.046207275 0.042772323 0.099586494 0.013511218 0.067153804 -0.04517858 0.014404821
-0.0857262 0.08814499 -0.034029566 0.07892274 -0.06642758 -0.07857389 0.045456752 0.050815254
-0.0005365049 0.03258255 -0.04975336 0.0090365885 0.10551861 0.026693787 0.09466541 -0.061943248
-0.08013878 0.043956842 0.04879311 -0.092755295 -0.020300802 0.07300213 -0.018729832 0.12684278
0.049345482 -0.066128425 0.06913372 -0.0663372 -0.04555582 -0.023768803 0.031111414 -0.10409479
-0.055789538 -0.10083787 -0.06798782 0.042138144 0.05184278 -0.013228333 0.058089405 -0.05915833
0.086042024 -0.0061952104 0.06324957 -0.013057292 -0.06294318 -0.09558964 -0.097166516 0.042714246
-0.042880606 0.07980678 -0.11992259 -0.036979966 -0.06384607 -0.0038186798 -0.007659296 0.042469732
-0.015584679 -0.012134652 -0.050274182 0.060157362 -0.06717653 0.06669271 0.0077474318 -0.06540107
-0.003879982 0.0749589 -0.04534407 0.08582679 0.05081953 -0.058983322 -0.029256295 -0.084539674
00000000: 0746 c0bc c4d0 77bd e6fd 9bbd f86c d1bd
00000010: f423 ce3d 85b2 aa3d 830d 9a3d 975a 983d
00000020: 0387 173d a38c 67bc 6570 493d e82d cebd
00000030: e874 88bb 7d56 c93d 400c fbbc 028a 1abd
00000040: be94 aabd c0df 373d 8dab aaba 4638 94bc
00000050: ed87 babc 0006 433c 55f4 21bd 6ec7 893c
00000060: 0e23 da3d 4f7d e93c 7bee 603d 0afe 0bbe
00000070: 31ca db3c ee43 b83d f3b8 ae3d 08f3 aebc
00000080: 1ecc d5bb 9d24 8dbd 4edd 013d fe7b 713d
00000090: bfe0 d7bc 0131 583d 5bac 8bbc c4dc d7bc
000000a0: 8626 41bc d339 903d 7fc5 b33d e214 b4bd
000000b0: 5cab 5c3d 8145 353d ea80 95bd d9a9 03bd
000000c0: 0bea 943d 8d2f 95bd 8210 603d 60c2 be3c
000000d0: d005 67bd c980 ccbd c26b b43d 9a99 123e
000000e0: 7382 db3d 8cad 55bd 8557 14bd ca5a 8939
000000f0: 268f a2bc fc56 c1bc 39fa bf3d 6c3e b53d
00000100: fde3 dc3c e2c8 953d 1ffc 0ebd 231e babd
00000110: 90b0 a83d 316c 873d d425 3abd 5c28 acbd
00000120: 4214 06bc 2a2f 5abd dffa a33d 7674 5d3d
00000130: c35e ec3a 7aee 4f3d 676d 7cbd 31fb 15bd
00000140: 02ac c13d 0087 aebd af04 c3ba 04c2 0fbd
00000150: 0420 a03d e200 7f3d b230 cfbd f99c cd3d
00000160: ca44 9fbd f289 d2bc 4589 9c3d 97e7 d5bd
00000170: 8054 823d bf8b aa3d 7f99 12bd 2b02 5f3d
00000180: 6333 6b3d f2a1 37bd 5982 8a3d 45b6 7a3d
00000190: d1a2 8cbd ddaa a4bd 150b 613d 18cf 973b
000001a0: 9b2c be3d f7c5 723d d049 3cbd 536e 6f3d
000001b0: 8010 aabd 6c09 8c3d 7c85 8f3d 39d0 38bb
000001c0: 656a 893d c09e ae3d 24ed 6cbd 7f34 6cbc
000001d0: 1599 32bd bf00 e3bd b9c6 95bd 5b45 703c
000001e0: 373c 8abc 8fbc a7bd 66cf 363d 46e7 ce3d
000001f0: a7f2 06bc 0010 733d 0821 b83d 7785 dabc
00000200: 1192 99bd ba4e 69ba 466a 15bc b95e cc3d
00000210: d0a2 a6bd 8b66 be3c ebcc 073d b7f8 d03d
00000220: dd87 103d 4d4f 523d 08c3 083d 0092 5cbd
00000230: a0b1 c0bc 3fb6 bcbd 06f1 6f3c fc8e c93c
00000240: aef0 d9bc b575 32bd 5e29 553d 168c 66bd
00000250: 17d6 a7bc 7cf5 803c ed5b 113d 49e4 033b
00000260: dc3b a13c 8d31 49bd 72fb bbbd 10b2 c8bd
00000270: b6eb 7d3d 86fc 24bd ddb1 c6bd 2475 bb3d
00000280: c459 e93c dd58 8cbd b844 6fbd 5c1b 58ba
00000290: 4289 b5bd 364b 06bd 3ca5 a6bd 50c5 9d3c
000002a0: 4c19 c53d b081 af3d 268f b73d fc32 fe3c
000002b0: aeb4 24bd fbc2 1e3d b729 fcbc 4e1b da3a
000002c0: 5e71 91bc d743 3d3d 0832 2f3d 01f4 cb3d
000002d0: 285e 5d3c ef87 893d 2d0d 39bd 3302 6c3c
000002e0: 3891 afbd 5c85 b43d 9662 0bbd 3fa2 a13d
000002f0: 2f0b 88bd 59eb a0bd dc30 3a3d a823 503d
00000300: 3ca4 0cba 4875 053d 2eca 4bbd 330e 143c
00000310: 241a d83d eeac da3c f0df c13d 34b8 7dbd
00000320: cd1f a4bd 170c 343d 49db 473d 7df6 bdbd
00000330: de4d a6bc 2482 953d 4e6f 99bc 13e3 013e
00000340: 7d1e 4a3d 576e 87bd fb95 8d3d ccdb 87bd
00000350: bd98 3abd cbb6 c2bc 5ddd fe3c a62f d5bd
00000360: 9283 64bd 1684 cebd 333d 8bbd 0c99 2c3d
00000370: 1859 543d a6bb 58bc 28ef 6d3d 0150 72bd
00000380: cd36 b03d 3101 cbbb fe88 813d 41ee 55bc
00000390: 5be8 80bd 80c4 c3bd 3dff c6bd 22f5 2e3d
000003a0: 93a3 2fbd bd71 a33d fa99 f5bd 4e78 17bd
000003b0: bac1 82bd d142 7abb d5fa fabb bef4 2d3d
000003c0: e256 7fbc 6bd0 46bc 4dec 4dbd 9167 763d
000003d0: d993 89bd 3096 883d 2bde fd3b fff0 85bd
000003e0: 4c47 7ebb 0d84 993d b4ba 39bd f5c5 af3d
000003f0: 2428 503d 7f98 71bd e6aa efbc 2323 adbd

fc.0.bias f4 [64]
0.041238047 0.008153562 -0.05459268 0.0956242 0.05079153 -0.007355259 -0.071970254 0.105691895
-0.012912641 0.06706375 0.107192874 0.045971096 -0.008664923 0.08733634 -0.0065112505 0.023057736
-0.00983282 0.108362414 0.030541554 -0.028381385 -0.08893431 0.008750251 0.016413022 0.015524574
0.027507493 -0.011803299 0.025623396 0.0029974785 -0.057803847 0.05602295 0.08102047 0.022315528
0.03269335 -0.10476187 0.0840208 -0.12312246 -0.021228164 -0.10020997 -0.12866087 -0.03335621
0.06298871 0.025042292 0.04102125 -0.14097026 0.07496987 0.06097839 -0.053391498 -0.10394002
-0.042641044 -0.08479779 -0.0051647834 -0.04448299 0.041834444 -0.055552445 -0.052795324 -0.06278368
0.039347462 -0.014665465 -0.09372317 0.010052299 0.09332448 0.08438092 -0.061810862 0.12991188
00000000: 3ae9 283d 8596 053c 939c 5fbd 9fd6 c33d
00000010: c80a 503d 6204 f1bb 2465 93bd fe74 d83d
00000020: 8b8f 53bc b858 893d f087 db3d 304c 3c3d
00000030: 52f7 0dbc 65dd b23d 545c d5bb 94e3 bc3c
00000040: d619 21bc 1ded dd3d 4832 fa3c 1480 e8bc
00000050: 3123 b6bd 365d 0f3c 9a74 863c c85a 7e3c
00000060: 6557 e13c a062 41bc 28e8 d13c 5871 443b
00000070: bac3 6cbd 5278 653d 0fee a53d 0ecf b63c
00000080: 76e9 053d 648d d6bd 1913 ac3d a127 fcbd
00000090: b0e6 adbc e23a cdbd adbf 03be 85a0 08bd
000000a0: 3a00 813d 7e25 cd3c e605 283d 825a 10be
000000b0: ce89 993d 7ac4 793d 0bb1 5abd 81de d4bd
000000c0: 60a8 2ebd 77aa adbd 583d a9bb cc33 36bd
000000d0: 985a 2b3d f68a 63bd e93f 58bd bb94 80bd
000000e0: ce2a 213d 6b47 70bc eff1 bfbd 66b2 243c
000000f0: e820 bf3d e7cf ac3d 632d 7dbd 9f07 053e

fc.2.weight f4 [7, 64]
0.07836454 0.014835163 0.106877536 -0.01048449 -0.13176431 -0.14398773 0.06530453 -0.094306484
0.09231847 0.08854816 -0.067040965 0.07006868 -0.11116076 0.10266892 -0.03651191 -0.049508873
-0.080591075 -0.014289944 -0.026664574 -0.02132091 -0.02519114 0.07786188 0.122431464 0.10787147
-0.02589274 -0.12213993 -0.074411005 0.08078573 -0.116869666 -0.13264465 -0.048513137 0.04083647
-0.061204687 0.069566585 -0.09855207 -0.030338358 -0.10979203 -0.041753117 0.015703317 0.040668815
-0.1603607 0.06561935 -0.05613562 -0.105323 0.03486611 0.033042178 0.0066547096 -0.0124557335
-0.11723696 0.035838354 0.109476075 -0.010254689 -0.052686978 -0.03808368 0.17938209 -0.044836197
-0.045558393 -0.011559008 -0.03598232 -0.05970382 -0.038841825 -0.04038627 0.017807173 -0.12133803
-0.04963341 0.05086028 -0.008549644 -0.09533074 -0.054629806 -0.027354255 0.06060353 0.02822936
0.15048558 0.08870588 -0.0353556 0.016651215 -0.105423 0.092971206 -0.085241064 -0.08709883
-0.10265376 0.05035242 0.09055105 0.059507772 -0.07597016 -0.08549722 0.047614574 -0.08373983
-0.009082449 0.08564668 -0.13287908 0.115217075 -0.05760585 0.07133609 -0.08207772 0.047134396
0.0016256804 0.0030011612 -0.09142916 0.021713894 -0.1283243 0.10018034 -0.08372407 -0.025905726
-0.067606635 0.0351854 0.087847546 0.024462946 -0.13743225 -0.04201056 -0.031371206 0.07905362
0.00079104863 -0.12783128 -0.09359431 -0.2064874 -0.074701354 -0.039646547 -0.05656328 -0.033277385
-0.08779472 0.035127234 -0.000116224124 0.0281455 0.08938106 0.10856503 0.030583855 1.357717e-05
0.01068539 0.11718382 -0.12680282 0.106181934 0.11678903 -0.090036154 0.08825833 0.11075749
0.039398354 -0.12593044 0.1366306 -0.1686774 -0.127831 0.026498295 -0.12564918 -0.041404206
0.07102622 -0.035599902 -0.017282324 0.016490197 0.067621164 0.10202816 -0.040532775 0.061607946
-0.05788353 -0.0053391387 -0.19174205 0.08514676 0.06676638 0.028655391 -0.0735922 0.09899624
0.10632708 -0.09118829 -0.06460592 -0.07798318 -0.08519662 0.07634083 -0.039149266 0.0133559145
0.08033106 0.02436578 -0.028385824 -0.011113818 -0.02966263 0.1181548 0.02882941 0.062600344
0.027035018 0.034649037 0.081308104 -0.14876595 0.11281618 0.059367787 -0.15556729 -0.020265829
-0.091292664 -0.048629925 0.102017 0.124172054 0.111803256 -0.004322762 -0.08670425 -0.17131823
0.16801104 -0.029063428 -0.14573619 -0.16047637 0.05889162 -0.051753532 0.04416477 -0.18107067
0.038575474 0.03311642 -0.16437985 0.08923543 0.0371762 0.03209369 -0.20950814 -0.11458863
-0.01704352 0.08102599 -0.010192198 0.047013134 -0.04181646 -0.018823542 -0.18365763 -0.096288934
0.085331686 0.038443297 0.048556726 -0.12982325 -0.10033402 -0.04192803 -0.080747314 -0.06786143
0.11102173 -0.105827175 -0.017225433 0.015665745 0.04650722 0.05406679 -0.08715825 0.086581
-0.06744369 -0.18424389 -0.023698673 0.07865777 0.05648792 0.14263588 0.038947374 0.09324289
0.14669469 0.0059838244 -0.0747416 -0.12892771 0.028510299 -0.09097099 -0.16088781 0.027016513
0.10091668 0.092791185 -0.04207127 0.100504406 -0.18601786 -0.19729124 0.004043686 -0.08639306
00000000: 977d a03d 2f0f 733c 9ce2 da3d 23c7 2bbc
00000010: 39ed 06be 8571 13be 62be 853d c223 c1bd
00000020: 7711 bd3d bd58 b53d c64c 89bd 2b80 8f3d
00000030: 41a8 e3bd 1544 d23d 838d 15bd d1c9 4abd
00000040: ef0c a5bd 5f20 6abc aa6f dabc 30a9 aebc
00000050: a65d cebc 0d76 9f3d 59bd fa3d b8eb dc3d
00000060: 031d d4bc 8024 fabd cc64 98bd fd72 a53d
00000070: 5d59 efbd 00d4 07be b6b5 46bd 2444 273d
00000080: c4b1 7abd ed78 8e3d abd5 c9bd 2688 f8bc
00000090: a5da e0bd 5105 2bbd 3ea4 803c 5894 263d
000000a0: 9835 24be 7063 863d 77ee 65bd 96b3 d7bd
000000b0: c4cf 0e3d 3c57 073d c00f da3b 2213 4cbc
000000c0: ee19 f0bd 3dcb 123d fe34 e03d 4803 28bc
000000d0: 4dce 57bd a2fd 1bbd f0af 373e 29a6 37bd
000000e0: 709b 3abd fe61 3dbc 3262 13bd fe8b 74bd
000000f0: 9b18 1fbd 136c 25bd 59e0 913c 1380 f8bd
00000100: 674c 4bbd de52 503d ce13 0cbc c33c c3bd
00000110: 81c3 5fbd 0816 e0bc 683b 783d 4241 e73c
00000120: e418 1a3e 6eab b53d 09d1 10bd 2168 883c
00000130: 04e8 d7bd b067 be3d de92 aebd df60 b2bd
00000140: 223c d2bd 573e 4e3d d472 b93d 6cbe 733d
00000150: 3e96 9bbd 2b19 afbd 8007 433d ca7f abbd
00000160: 8dce 14bc 8767 af3d 7411 08be eef6 eb3d
00000170: 1df4 6bbd a818 923d 5d18 a8bd ff0f 413d
00000180: c814 d53a 21af 443b 363f bbbd 56e1 b13c
00000190: 7267 03be 5a2b cd3d 8677 abbd 3f38 d4bc
000001a0: 5975 8abd 911e 103d 6ae9 b33d 8466 c83c
000001b0: 0abb 0cbe 4413 2cbd 187f 00bd dde6 a13d
000001c0: 605e 4f3a 34e6 02be 60ae bfbd 6f71 53be
000001d0: 06fd 98bd 6b64 22bd e6ae 67bd de4d 08bd
000001e0: b8cd b3bd 93e1 0f3d 5abd f3b8 6491 e63c
000001f0: 6b0d b73d 5857 de3d fe8a fa3c 80c9 6337
00000200: c611 2f3c 12fe ef3d 99d8 01be ea75 d93d
00000210: 162f ef3d e064 b8bd c9c0 b43d d3d4 e23d
00000220: 2b60 213d e9f3 00be e4e8 0b3e c5b9 2cbe
00000230: 21e6 02be f412 d93c 2eaa 00be 7597 29bd
00000240: 3276 913d 34d1 11bd a993 8dbc 7316 873c
00000250: f77c 8a3d 24f4 d03d b205 26bd 9d58 7c3d
00000260: 4817 6dbd f1f3 aebb 0758 44be 6d61 ae3d
00000270: d0bc 883d b6be ea3c 82b7 96bd 8abe ca3d
00000280: 03c2 d93d edc0 babd 1c50 84bd a5b5 9fbd
00000290: 917b aebd 9558 9c3d fb5a 20bd c4d2 5a3c
000002a0: 9c84 a43d bf9a c73c 6389 e8bc bb16 36bc
000002b0: 0bff f2bc 25fb f13d a82b ec3c 9c34 803d
000002c0: 8b78 dd3c 26ec 0d3d dd84 a63d 1a56 18be
000002d0: 2b0c e73d a32b 733d 084d 1fbe 8604 a6bc
000002e0: a6f7 babd 2c30 47bd 4aee d03d eb4d fe3d
000002f0: 1bf9 e43d f5a5 8dbb ff91 b1bd 0c6e 2fbe
00000300: 160b 2c3e 6d16 eebc de3b 15be eb53 24be
00000310: 5738 713d 83fb 53bd 1ee6 343d 976a 39be
00000320: 5101 1e3d 15a5 073d 3153 28be 11c1 b63d
00000330: 1246 183d ac74 033d 4d89 56be 72ad eabd
00000340: da9e 8bbc f4f0 a53d 2dfd 26bc d890 403d
00000350: bd47 2bbd d433 9abc bf10 3cbe 2233 c5bd
00000360: 61c2 ae3d b876 1d3d 6be3 463d 63f0 04be
00000370: ec7b cdbd babc 2bbd d95e a5bd effa 8abd
00000380: 5c5f e33d ebbb d8bd 5a1c 8dbc 7355 803c
00000390: 5b7e 3e3d 2375 5d3d 0680 b2bd 6151 b13d
000003a0: eb1f 8abd 6eaa 3cbe b823 c2bc 5317 a13d
000003b0: e15f 673d 240f 123e 4887 1f3d 21f6 be3d
000003c0: 2237 163e f513 c43b 2012 99bd a005 04be
000003d0: 6e8e e93c 004f babd c6bf 24be bc51 dd3c
000003e0: 68ad ce3d 4e09 be3d ed52 2cbd 41d5 cd3d
000003f0: 777b 3ebe b706 4abe e680 843b d8ee b0bd

fc.2.bias f4 [7]
-0.15660308 -0.0072837654 -0.094341345 -0.07437491 -0.059921004 -0.06297079 -0.06899708
00000000: 8f5c 20be a7ac eebb 0936 c1bd df51 98bd
00000010: ba6f 75bd d4f6 80bd 574e 8dbd
