models/connect4_model_16_0.001_4_4_4.pth (torch, 38200 bytes, 14 tensors)

board_conv.0.weight f4 [4, 6, 3, 3]
00000000: 15aa 3bbc ae95 e23c 19ef f9bd fa17 cfbc
00000010: f839 043e 0a1e 60bc b4b1 073e ba7c f23d
00000020: 757b 25bc 8955 963d 0e71 b43d 35bc 6f3d
00000030: 7908 973d e65a a53d aaa1 de3d cb5f c5bd
00000040: 8257 d8bd 7594 7d3d 4bb6 093d 841e c4bd
00000050: bed1 d33c 6b38 253d cad9 90bd 96f7 9abd
00000060: 5e5e ecbd 8883 fdbd 6b1b e6bd d85e e4bd
00000070: 9ee2 253d f724 953c 691b 85bd b324 d7bd
00000080: bfb1 dcbd f019 8dbd c244 8bbd cf2e 12bc
00000090: d9bd b93d afea e9bd f39e a23c d412 61bd
000000a0: ff9e c1bd be0f bf3d 5a2c c93d eefd d03d
000000b0: 33dd dd3d e6f8 76bd e664 5fbd b0a7 e13d
000000c0: 92ec 8abd 6d24 df3d d485 d33c 4d8c 823d
000000d0: ecd9 2c3c b6c1 cb3d c9b9 eb3d ad2d d4bc
000000e0: 587e 503d c025 f53d 0e33 2c3d 9ff3 d53d
000000f0: df56 003e 1629 0c3e a5fe 12be ffb9 4f3d
00000100: 9949 c03d 416c a2bd 0090 bf3d cf84 e2bd
00000110: 7442 123b 9148 c03d 5f8e b43b 4d18 873d
00000120: 83d1 e83d 2267 e93a 07b1 92bd 4add d0bc
00000130: 40b1 cdbc 1fc8 cfbd 866e e1bd bef7 acbd
00000140: ac15 8c3d c0f2 8e3d 3a28 d93d 812b b7bc
00000150: b945 2f3d 20ba ec3c f924 6cbd d8ca d03b
00000160: 30f1 fd3d 87fa 05bd b13d 0f3e 9b18 06be
00000170: 39df ddbc e5c2 a8bd b73e a4bd 1853 14bc
00000180: 867b fd3d 01cc 843d fa7a 56bd 50c1 ef3d
00000190: d1a9 da3d 68bc 973c 3639 83bd 13be 0fbd
000001a0: f370 b5bc 6e71 7b3d 4110 eb3c 3cee c63c
000001b0: 6f59 e23d aeeb 91bd a3dc d83d c65b cb3d
000001c0: 4be4 4fbb 8514 d53d a31c d2bc 6090 643b
000001d0: e316 9fbc 476c bbbd b349 4b3d 51a7 c3bd
000001e0: 48cd 143d c6f0 edbc 6238 993d 04db 5dbd
000001f0: c732 d23d c0ec bfbd c6f2 aebd d34a 88bd
00000200: f5bf f8bd b219 1d3c 0620 66bd 2fcd 90bd
00000210: a6c9 cbbd 85a2 673d 5c46 b2bc 0ebf b5bd
00000220: f530 243c 1b93 0cbe d25e 0d3e 5efa 0e3d
00000230: 9cac ad3d 5d63 30bb 3c3c 82bb bf53 ecbd
00000240: 039b e4bd 9bd3 09bc dca7 793d 108d a938
00000250: 1465 ef3d 3305 7dbd 7e34 25bd 5ab3 a0bd
00000260: 4e1c 5f3d 290f b7bd 293e e5bd 21a9 a53c
00000270: 915e 99bd a8ee ba3d f40a 903d c434 71bd
00000280: 3d4d 01bd 32ab 18bd 052a 96bc 1881 01be
00000290: b642 b03c a058 8f3d 3284 0a3e fd0b 253d
000002a0: 6718 8c3d ff8b a93d ac7e 9fbc 190d 983d
000002b0: 5f54 fabd 337e b13b 55e1 3cbd 9d34 03be
000002c0: 8199 733d 6a49 8ebd 94c3 0f3e c1fa 3fbc
000002d0: c9ed 913d d9f3 dc3c 6a6d b3bd 93c1 bdbd
000002e0: 0010 643c eac7 5cbd 8c5d 89bd 1088 16bd
000002f0: c700 21bd 8e75 df3c e449 f1bd d3a8 e1bd
00000300: d14b b73d d5b7 b83d 1acb ce3d 98d8 98bd
00000310: abe8 963d a653 873d 96ec dbbd 72b7 15bc
00000320: 353b 98bd c9f5 093e 842c a73d 2565 fa3b
00000330: 643e 0dbe bc8b ffbd 4a76 e43d b088 14bd
00000340: 8523 c0bd b1c1 45bb 2725 23bd a23e 993c
00000350: f404 973d a7c2 02be 0a41 a7bd 84bf 243d
-0.011454125 0.027659263 -0.122038074 -0.025279988 0.12912738 -0.013679037 0.13251382 0.11840196
-0.010100235 0.07340533 0.08810626 0.058529098 0.07374663 0.08073978 0.10870679 -0.09637412
-0.10563566 0.061909158 0.033621114 -0.09576133 0.025856849 0.040337007 -0.0707279 -0.075667545
-0.115414366 -0.12378603 -0.11235698 -0.111509025 0.040499322 0.018206103 -0.06499369 -0.10505047
-0.1077609 -0.06889713 -0.06800224 -0.008922293 0.09069414 -0.114217155 0.019851184 -0.054949597
-0.09454154 0.093291745 0.098229125 0.10204683 0.10833206 -0.06029596 -0.054539584 0.11018312
-0.067834035 0.108956195 0.02582065 0.063744165 0.0105500035 0.09949057 0.11510045 -0.025900686
0.05090174 0.11970091 0.042040877 0.10446858 0.12533139 0.13687548 -0.14354952 0.05071449
0.09389038 -0.07930804 0.09353638 -0.110604875 0.0022317441 0.09388841 0.005510136 0.06596432
0.11368086 0.0017807225 -0.071626715 -0.025496144 -0.025108933 -0.10145592 -0.11007409 -0.084456906
0.06840071 0.06979895 0.10603376 -0.022359611 0.042791102 0.028897345 -0.057652447 0.006371837
0.123995185 -0.032709625 0.13988377 -0.13095324 -0.02708398 -0.08240298 -0.080197744 -0.009053014
0.12377076 0.06484223 -0.052363373 0.11706793 0.10676921 0.018522456 -0.064073965 -0.03509338
-0.022148585 0.06138747 0.028694274 0.02428352 0.11052214 -0.071250305 0.10588958 0.09929614
-0.0031721767 0.104043044 -0.02564842 0.0034876093 -0.019420093 -0.09151512 0.049630832 -0.095533974
0.036328584 -0.029045474 0.07481457 -0.054163948 0.10263591 -0.09371328 -0.08542399 -0.066548966
-0.12145988 0.009588646 -0.056182884 -0.07070386 -0.09950571 0.056551475 -0.021762066 -0.088743314
0.010021438 -0.13727991 0.13805702 0.034906738 0.08480188 -0.0026914694 -0.0039744657 -0.11539411
-0.11162379 -0.008412267 0.0609511 8.084823e-05 0.11689201 -0.061772536 -0.040333264 -0.078467086
0.054470353 -0.089384384 -0.11193497 0.020222249 -0.0748874 0.09127551 0.07033339 -0.05888821
-0.0315678 -0.03727264 -0.018330583 -0.12646902 0.021516185 0.06999326 0.13526991 0.040294636
0.06840592 0.08278655 -0.019469582 0.07424373 -0.12223124 0.0054166554 -0.04611333 -0.12813039
0.059472565 -0.06947596 0.14039451 -0.011717499 0.07125432 0.026971744 -0.087611035 -0.09265437
0.01391983 -0.05390159 -0.06707296 -0.036750853 -0.039307382 0.027277734 -0.11781672 -0.11018529
0.08950008 0.09019438 0.10097332 -0.07463187 0.07368597 0.066077515 -0.107384846 -0.009137975
-0.07433168 0.13472666 0.081627876 0.007641452 -0.13793331 -0.12477824 0.11155374 -0.036263168
-0.09381775 -0.0030175264 -0.039830353 0.018706623 0.073739916 -0.12769566 -0.08166702 0.040221706

board_conv.0.bias f4 [4]
00000000: c4c7 7f3d f37f b0bd 8564 363d 4ea0 7bbd
0.06244637 -0.086181544 0.044529457 -0.061432175

board_conv.3.weight f4 [128, 4, 3, 3]
00000000: 4d46 1f3d fe7e 30bc 3729 1abc 0089 293e
00000010: e662 28be e940 0a3c 4e73 12be a085 bb3d
00000020: f5d9 adbd 1ec1 4e3c 7072 80bb 58d7 4f3d
00000030: 1094 2dbd e448 de3b 10c4 b93d 7b7f 013d
00000040: 1915 fa3d 8409 57bd f9e5 18bd 2a94 f4bd
00000050: 0c78 083d 3ff2 1abd 1bbd 023e 84fc 1ebd
00000060: e6ab dcbd cd05 183e 2c0d 1dbe ab4c 80bb
00000070: 8953 113e 3c69 8b3d febd 333c a699 153e
00000080: 7914 b43d 8e86 efbd c306 143e 895f d5bd
00000090: ab3c 483b ab54 70bc d6ac d43b ac71 16be
000000a0: 8e73 c8bd 809b 30bd b34c cd3d a0a3 e7bc
000000b0: 237a 1dbe 001a d5bb 5b52 fe3d 2027 a6bd
000000c0: be61 01be fb53 d5bd 966c 273c 832a 823d
000000d0: 8bc0 dfbd 00cd 393d 9644 1bbe f69d a2bc
000000e0: 207a d33c baf9 19be 8b50 ba3d 2b7c 8d3c
000000f0: dbb9 953d 438e d3bd 3e0b b43d e8a4 0e3e
00000100: 8b58 e7bd f6f7 0b3d 1692 c13c e2cd 1f3e
00000110: eb58 5cbd 56df 4abc 56b4 0abd 20ac f73c
00000120: 309a aa3d a179 d3bd 3409 1cbe 7752 c3bd
00000130: 9caa 0bbe 283b 94bd 224e b5bc 2c25 023e
00000140: a656 623d ade7 8bbd 26c2 ba3d 561a edbc
00000150: 32e5 b83d e869 ee3d c0f0 343c 901e 173e
00000160: cbf5 1c3d 6bcd 36bc 02b8 773d 58fe 99bd
00000170: 2bc0 82bc 8d64 0bbe 00b8 6dbc 10fd ddbd
00000180: 7cc0 1f3e e111 b33d c650 88bd b975 ec3c
00000190: ad1a 603d 238b 85bd e18c 15be 36e8 583d
000001a0: 5b46 47bd 617f 843d 93dc 42bb 2b60 e8bb
000001b0: 2abe 53bd 6321 ffbd 522a 863d 4bc8 5ebd
000001c0: 8b51 19bd 5aa0 013e 2c16 1b3e 3036 a33c
000001d0: 4e99 963c e4ae a1bd b2a4 a5bd 2c93 24bd
000001e0: 5e93 033e c7ba af3d d245 be3d 957e 29be
000001f0: c232 b4bc 9db7 dbbd 11c3 30bd 5045 4c3a
00000200: 71dc aebd c331 e83d 87f2 1d3c fada 7b3d
00000210: 137a 493d afe5 d63d aa77 e2bd 5c68 063e
00000220: 5d96 313d c30a 31be cc3e 2c3c 0012 473c
00000230: 13d6 e1bd 6d4c 04be d21a 9ebd e822 023e
00000240: c2dc 833d b984 843d 9529 38bd ad94 5bbb
00000250: 46b6 583d affb 143e 9071 b03d cd9b 203d
00000260: 0e5c 27ba 09d3 983c 1d3a 113e 7ae4 f63d
00000270: 943d bf3d 7b06 573d f975 f93d 1938 2dbd
00000280: 6844 82bd 8128 e8bd a1c6 f63d fbfc c1bb
00000290: b96d d13d 6ef7 f5bd b10c 4a3d 88a5 c9bd
000002a0: 1d98 e43d 3845 cc3d 909d b73d ac6c 093e
000002b0: 2a65 aa3d 7e81 073e 7085 b93d 6ac3 89bd
000002c0: a3ee 52bd 642e c83d 0772 27be 0bb5 99bc
000002d0: ff2d b33d ad26 0d3e 76a1 b53c 3e80 e83d
000002e0: ab2a 943c d392 9fb9 9ed3 8d3d b6c0 00be
000002f0: f108 c1bd 73ca d93c d933 17be 215c 97bc
00000300: 9ed3 153d 4938 ef3d 0155 1dbd b60e 0fbe
00000310: e7ea 93bd 5bd5 063e f529 4dbd 8983 0b3e
00000320: 04b9 5ebd d28e 123e a30d f43c 358b d5bd
00000330: d93b 2a3e fa70 cabd 0dc5 c63d fec8 ce3d
00000340: b1cf 06be 0946 c0bd 307d 2dbd ce45 e03d
00000350: 316e 9ebd f3c4 a3bc 7380 5a3d 149e 093e
00000360: 4c70 c0bd b77f a0bd 2134 c0bd 4b6b ef3d
00000370: 3bd7 b43d 3bd3 eabc 585b 2a3e 6e8b a13c
00000380: ef2a 043d 7927 4fbd 291a 8fbd 5d15 c53d
00000390: aad0 4abd 0ec7 903c f4dd 65bc 5cea 08be
000003a0: 0837 483c 58c7 9abd 11db f3bd 7196 f23c
000003b0: 9a85 103d b88e a1bc 407e 113d df61 cb3c
000003c0: b632 be3d 6f6f 9c3d 4c6b a33d 65f7 cd3d
000003d0: d368 93bc 7052 943d 660f 213e ca5c 4a3d
000003e0: 011d 8d3d 2248 a5bd 6d68 683d 66ef e9bd
000003f0: 8fc7 23be fc1a 053e f11a d83c 7758 b13d
0.038885403 -0.010772465 -0.00940924 0.16556168 -0.16443977 0.008438327 -0.14301798 0.09156346
-0.08488838 0.012619285 -0.003919892 0.050742477 -0.04237753 0.0067835916 0.09070599 0.031615715
0.12211055 -0.05249931 -0.037328694 -0.119423226 0.03331761 -0.03782868 0.1276745 -0.038815036
-0.107749745 0.14845963 -0.15337056 -0.0039153895 0.14192022 0.06807181 0.010970591 0.14609393
0.08792967 -0.11695586 0.14455704 -0.104186125 0.003055374 -0.014668624 0.00649033 -0.146918
-0.09787665 -0.043117046 0.10024395 -0.028276265 -0.15378623 -0.0065033436 0.12418052 -0.08112931
-0.12634942 -0.10416409 0.01021876 0.06355765 -0.109253965 0.04536152 -0.15162882 -0.019850712
0.02581507 -0.1503667 0.090973936 0.017271122 0.0731084 -0.10329869 0.08791207 0.13930094
-0.11296185 0.03417202 0.02362923 0.15605882 -0.053795736 -0.012382349 -0.033863388 0.030233443
0.0833019 -0.10325933 -0.15237886 -0.09537213 -0.13639301 -0.07237846 -0.022131983 0.12709492
0.055258416 -0.06831298 0.09119062 -0.028943222 0.090280905 0.11641294 0.011043727 0.14757752
0.038320344 -0.011157374 0.060478218 -0.07519215 -0.015960773 -0.13612576 -0.014509201 -0.108392835
0.1560077 0.087436445 -0.06656031 0.028864728 0.05471294 -0.06520679 -0.14604522 0.05295583
-0.04865108 0.06469608 -0.0029733523 -0.0070915422 -0.051695026 -0.1245754 0.06551041 -0.054390233
-0.03743128 0.12658826 0.15145177 0.0199233 0.018383648 -0.07894686 -0.08088054 -0.040179417
0.12849185 0.08580547 0.09290661 -0.16552193 -0.02199686 -0.10728381 -0.04315478 0.0007792311
-0.085381396 0.11337616 0.009640343 0.06148813 0.049188685 0.104930274 -0.1105798 0.13125747
0.04335629 -0.17289262 0.010513019 0.012150288 -0.110271595 -0.12919779 -0.07719959 0.12708628
0.064385906 0.06470627 -0.04496153 -0.0033505366 0.052908204 0.14549135 0.0861541 0.039211083
-0.00063842617 0.018655317 0.14182325 0.12055297 0.09337917 0.052496415 0.121807046 -0.042289827
-0.06360704 -0.113358505 0.12049604 -0.00592005 0.10226006 -0.12010084 0.04932851 -0.09846026
0.11161826 0.0997414 0.089655995 0.13420361 0.08320077 0.13232991 0.09058654 -0.067267254
-0.051497113 0.09774473 -0.16352092 -0.018763086 0.087490074 0.13784285 0.022171717 0.11352585
0.018086752 -0.00030436236 0.069251284 -0.12573513 -0.094255336 0.026585793 -0.14765872 -0.018476548
0.036578767 0.116806574 -0.038411144 -0.13970456 -0.072225384 0.13167326 -0.05008884 0.13624395
-0.054375663 0.14312294 0.029791659 -0.10426942 0.16624393 -0.0988483 0.09705553 0.1009693
-0.13165165 -0.09388358 -0.042355716 0.10950814 -0.07735861 -0.019991374 0.053345155 0.13439208
-0.09396419 -0.0783686 -0.09384943 0.116903864 0.088301145 -0.028665176 0.16636407 0.019719806
0.032267507 -0.050574753 -0.069874115 0.09623215 -0.049515404 0.017673042 -0.0140299685 -0.13370651
0.012220152 -0.07557553 -0.11907018 0.029612752 0.035283662 -0.019721374 0.035520792 0.024826942
0.09287016 0.07638442 0.0797945 0.100569524 -0.01799432 0.07242286 0.1572853 0.049404897
0.06890298 -0.08070399 0.056740213 -0.11422615 -0.15994094 0.12998575 0.026380034 0.086594515

board_conv.3.bias f4 [128]
00000000: c98a 4d3d 74ba 27be c298 fdbd 5635 4cbd
00000010: 3c1f e7bd cfba 2c3e b58a a9bd 0e38 16be
00000020: c146 9b3d 3110 5938 e7e1 f5bd 4349 afbd
00000030: 8afb 6f3c b210 d93d a6c1 96bd 6ec4 8a3d
00000040: 02de a03d 9273 fcbd 1360 f03d 94a0 ecbd
00000050: c3c1 3b3c 262c f9bd bfc3 2dbb 71ff 08bd
00000060: 158f 30bd c4b3 b8bd c1a2 813d 9c0a b4bc
00000070: 117c 3c3d ff52 afbd 1759 153e e702 c5bd
00000080: b345 a93d 6aa3 9dbc 14ba fcbd 1125 e33d
00000090: 9ac5 dc3c bb7f 00be 0fd1 8bbd 614b b23d
000000a0: 1946 5bbd 11b2 983c 3bcb 893d 1e1f c5bd
000000b0: 740a bf3c ddb7 22be a807 2dbd 232a da3c
000000c0: f02f 1dbd ef28 c93d 2670 833d 9948 b7bd
000000d0: 0b26 333d 09b4 0a3e 83e0 f4bc 9cd5 08be
000000e0: 65e8 803d dbee aa3d 7efb ff3c fda0 053e
000000f0: 5ccc 42bd 1836 cdbd 1418 203e 73ea e43d
00000100: cbac 56bd 1a08 ff3d 3887 e03c a1a6 f8bd
00000110: 7c90 f53c a81e 583d 620d 0d3e 0c11 95bc
00000120: 922d ea3d db52 20be 34a6 ae3d a669 083e
00000130: 37f4 263e a42e 933c a04c 083e 978f ecbd
00000140: 5100 f9bd d438 cf3d 5076 e7bd 3ca2 863b
00000150: b068 cabd ba04 753d 0774 86bd 9a37 07be
00000160: 6c7e 1e3e 4e9f 29be 9e88 a03d 518e fa3d
00000170: 16b5 f2bd 083a c6bd 3e01 a43d cd3f cd3d
00000180: 6b64 f6bd 3759 0cbe 51d0 363d 594d cb3d
00000190: dafa 883d 9351 d2bd eef0 babb bff3 b83d
000001a0: 9701 03be bede f5bd b048 ffbb 5d8f 093e
000001b0: f4dc 1d3e 5c69 3fbd d9ec 4fbd 77a8 153b
000001c0: b81c 2dbe 3600 bf3d 597f eb3d 5bd8 e63d
000001d0: 24af 093e 6f8c 5c3d d5b5 12be d817 debc
000001e0: e52d cfbd 79db 23bd 2968 a13d 9d0f 25be
000001f0: 5a1b be3c 6fd0 0cbe d672 e83d a288 5f3b
0.050181184 -0.1637972 -0.12382652 -0.049855553 -0.11285254 0.16868137 -0.082784094 -0.1466982
0.075818546 5.175191e-05 -0.12005978 -0.085588954 0.014647374 0.105988875 -0.07361154 0.06775747
0.07854845 -0.12326731 0.11737075 -0.11554065 0.011459771 -0.12166624 -0.002651438 -0.033446733
-0.043105204 -0.090186626 0.06329871 -0.021977715 0.046016756 -0.08560752 0.14584766 -0.09619694
0.08265247 -0.019242961 -0.12340179 0.11091054 0.026949693 -0.12548725 -0.06826984 0.08705784
-0.053533647 0.018639596 0.06728216 -0.09625076 0.023320414 -0.15890451 -0.04224363 0.02663142
-0.038375795 0.098222606 0.06417875 -0.08949394 0.043737452 0.1354524 -0.029892212 -0.13362736
0.06294326 0.08346339 0.03124785 0.13049693 -0.047558174 -0.10020083 0.15634185 0.1117753
-0.052410882 0.12452717 0.027408227 -0.12141157 0.029976122 0.05276361 0.13774636 -0.018196605
0.11434473 -0.15656607 0.085277945 0.13321552 0.16304098 0.017966576 0.1331048 -0.11550825
-0.121582635 0.10118261 -0.11301863 0.0041086953 -0.09883249 0.05981896 -0.06565099 -0.13204804
0.15477914 -0.16564676 0.07838558 0.12234176 -0.11850946 -0.09679037 0.080080494 0.10021935
-0.12030872 -0.13705908 0.04463226 0.09926862 0.06688471 -0.10269465 -0.0057049906 0.09030866
-0.12793575 -0.12005375 -0.0077906474 0.13433595 0.15416318 -0.046731338 -0.050762985 0.0022836009
-0.16905487 0.09326212 0.11498899 0.11271735 0.13445717 0.053844865 -0.14327176 -0.027110979
-0.101161756 -0.040004227 0.07881195 -0.16119237 0.023206402 -0.13751386 0.11350028 0.003410854

board_fc.0.weight f4 [4, 768]
00000000: ded7 98bc 99af 26bb e8ea f93c 6a7b 9ebc
00000010: a99e 2d3b feba b7bc 16a4 c13b b894 e0bb
00000020: a391 f23c b9ec bd3b 2fa9 cf3b 23f9 cabc
00000030: 76f2 f3bb d06e 7abc 72ac 613c 3a38 09bb
00000040: b64a 4abc f629 11bc 9b2d b4bc cdba f23c
00000050: d9bd 023d d02b 9e3c 617f 313c a9e5 00bb
00000060: 39eb a33b 1684 fd3b 8ad7 533c 2422 383c
00000070: 6764 13bc e0d2 c7bc f9fc 513c 37dc 013d
00000080: bd63 81ba ae55 49bc 23d8 70bc 867b 553c
00000090: 969b 3c3c 6082 03bd f485 87bc 0044 fa3c
000000a0: 7a14 d5bc 4868 613b 7f16 d53c a335 c7bc
000000b0: 98d6 96bb 882a e03c 93a0 fabb c971 bfbc
000000c0: e044 3abb 9113 89bc a617 13ba 962f 983c
000000d0: be03 10bd c578 74bb 82d3 8b3c 4f8a dfbb
000000e0: 488d a83c 6ab3 65bc 5089 003d 4ede 0abc
000000f0: 8711 f23c 961f e63c f8e0 8dbc 2152 cbbc
00000100: e9bb fe3c 4936 11bc abe6 8abc f94f b3bc
00000110: b96c bfbc fb0a 293c c11f 4c3b 79eb 0a3d
00000120: 3739 383b 1ea5 12bb 9d6f e93c a27c 94bc
00000130: d6c8 3cb9 8bb3 88bb ac29 c3bc 6f17 0dbd
00000140: bb56 02bd c673 9f3c 5a74 d53c d7c1 12bd
00000150: 9447 39bc 7e84 23bc dc37 bfbc bf22 953c
00000160: 22a9 52bb a26e 963b 4e39 e5ba be7d bb3c
00000170: cadd 43bb de2d 67bb c1be 9e3c 078e 633c
00000180: e9a8 e33a 40cc cdbc 7dbd a4bb 6541 10bd
00000190: 4d32 fabc 872a 36bc c80b 4bbb 95de 9d3c
000001a0: 6d2a fbbc 4b14 5e3c 6946 27bc e419 66bc
000001b0: 7b2c a03c 7007 0b3d 8b27 2b3b 9866 08bd
000001c0: 252b c63c c1b2 57bc bffb d93c 12b7 453c
000001d0: 5c96 78bc 7a57 d53c a0eb 27bc 0650 383b
000001e0: 53da acbc b8ae ecbc 0695 903c 4453 35bc
000001f0: 777d e5bc 9b01 003d a0c3 073d 43c9 ca3c
00000200: 3fc8 df3c 4f77 04bd 52ca 92bc 55df 92bc
00000210: d3c5 bc3c dde7 1e3c 36aa e53b fe9f a93c
00000220: db9f 01bc ee97 86bc 5002 833c 19a3 ac3c
00000230: 5338 05bd 6dc6 7c3b f6d8 69bc f3f4 6f3c
00000240: fd02 e73c be90 0a3d 1382 a23c dd93 11bd
00000250: 1943 ecbc bac2 2d3c 348e c5bc d7e4 ccbc
00000260: b35a 9b3c 3a22 313c 2011 f53c ce1f 113d
00000270: 52dd 893c 8736 e93c 9815 e2bb b0ea dd3b
00000280: d6db c13c 3d74 833c 6c99 58bc 1d18 d83a
00000290: db61 413c e06a a7bb c699 e6ba 6ce9 0a3c
000002a0: b6af c9ba f4a9 76bc de22 f0bc 7a1b b0bb
000002b0: 1eb4 c1bc 6752 0f3d 6090 ccbb 906e 2f3b
000002c0: f0b6 0b3c 8088 0cbb ba92 95bc 3273 aeb9
000002d0: 61b9 b6bc 6fed 153c 82f9 1c3c 15ad 7fbc
000002e0: 966f 443c a254 01bd 4162 003d 22a3 abbb
000002f0: 31ae c3bb 39c5 a8bc 773a bb3a 21ca 0f3d
00000300: fade a6bb fe44 10bd 8cd4 9bbc 12f1 25bc
00000310: f010 dcbb 9769 a03b d034 a83c 7ba6 b73c
00000320: 386a 9fbb be17 2d3c 94b5 09bd 845f 96bb
00000330: 78ee ba3c 84cd 60bc bd2c 90bb 574a c73c
00000340: 832d 9abc 95d1 1ebc d456 8dbb 547b 233b
00000350: d456 09bd a23f 04bd 1398 abbc fde8 0bbd
00000360: d690 e6bc 9480 bf3c 729c 823b 9023 cb3b
00000370: db77 8bbc d438 463c 45f5 4ebc 44fc aebc
00000380: d426 01bd f0f7 e6bc 090c 183c 6288 a6bc
00000390: f434 a1bc baca 91bc 6fa1 72bb ab44 fc3b
000003a0: 9ca3 9e3c 278b 28bc 94a5 e93c cea1 65ba
000003b0: 8980 03bc ca75 f0bc 84d1 0dbd 7186 a4bc
000003c0: a5cb 023b 2bdf 053c 5912 103d 4e50 323c
000003d0: 9311 be3c a507 e9bc a9e4 dbbb 6990 cc3a
000003e0: 04c1 05bd a8ed 043d 0439 9d3c c9e1 dd3c
000003f0: cc0b 603c b7d8 0abc a2ea 753b efa3 4e3c
-0.018657621 -0.0025434254 0.03050752 -0.019345958 0.0026492274 -0.022428032 0.005909453 -0.006853666
0.02961046 0.005796042 0.006337307 -0.024777 -0.007444675 -0.015285209 0.013774024 -0.0020938055
-0.012346914 -0.008860102 -0.021994403 0.02963009 0.031919334 0.019308 0.010833592 -0.0019668138
0.005002406 0.007736693 0.0129298065 0.0112386085 -0.008996106 -0.024392545 0.012816661 0.031704154
-0.0009871643 -0.012288494 -0.0146999685 0.013029939 0.011511704 -0.032106757 -0.016543366 0.030550003
-0.02601074 0.0034394432 0.026011704 -0.024317568 -0.0046032183 0.02736403 -0.0076485365 -0.023369687
-0.00284224 -0.016732963 -0.0005611129 0.018577378 -0.03515982 -0.003730343 0.017068628 -0.0068219076
0.02057518 -0.014019826 0.03138095 -0.008475853 0.029549373 0.028091233 -0.017319188 -0.024819436
0.031095462 -0.00886304 -0.016955694 -0.02188872 -0.023367273 0.010317559 0.0031146856 0.03391597
0.0028110275 -0.002237625 0.028495604 -0.018125836 -0.00018003894 -0.004171794 -0.023823582 -0.034446176
-0.031820994 0.019464385 0.026056457 -0.03582939 -0.011308569 -0.009980319 -0.023342066 0.018205045
-0.0032144268 0.004590825 -0.0017488392 0.022887107 -0.0029886835 -0.0035275142 0.019378068 0.013888842
0.0017369065 -0.025121808 -0.0050274716 -0.035218615 -0.030541563 -0.011118538 -0.0030982364 0.019271174
-0.030659879 0.013554643 -0.010209658 -0.014044259 0.01955246 0.03394264 0.0026116099 -0.033300966
0.024190495 -0.013165177 0.0266093 0.012067573 -0.015172567 0.026042689 -0.0102490485 0.002812387
-0.021100199 -0.028891906 0.017649185 -0.011067215 -0.028013928 0.03125153 0.033145547 0.024754172
0.027317164 -0.032340344 -0.01791874 -0.017928759 0.023043549 0.009698835 0.007008816 0.020706173
-0.007911648 -0.016429868 0.015992314 0.021073865 -0.032524418 0.003857042 -0.014272919 0.014645803
0.028199667 0.033829443 0.019837415 -0.035541404 -0.028840588 0.010605508 -0.02411566 -0.025011463
0.018964147 0.010811383 0.029915392 0.035430722 0.016829167 0.028468383 -0.006899547 0.0067723617
0.023664396 0.016046638 -0.013220172 0.0016486679 0.011803116 -0.005109176 -0.0017593435 0.008478504
-0.0015387449 -0.015055168 -0.029313501 -0.005374369 -0.023645457 0.034990694 -0.006242797 0.0026768781
0.008527502 -0.0021443665 -0.018258441 -0.00033273693 -0.022305192 0.009150847 0.009580972 -0.015605231
0.011989495 -0.031574853 0.031343702 -0.005237953 -0.005971693 -0.020601856 0.0014284392 0.035104875
-0.005092499 -0.035222046 -0.019022249 -0.010128276 -0.0067158863 0.0048954 0.020532995 0.022418251
-0.004864957 0.010564743 -0.033620432 -0.004589023 0.022818789 -0.013720874 -0.0043998645 0.02432744
-0.01882053 -0.009693523 -0.0043133292 0.0024945335 -0.03353007 -0.032287247 -0.020946538 -0.03415774
-0.028145235 0.02337674 0.003985935 0.0061993077 -0.017024925 0.01209851 -0.012631719 -0.021360524
-0.03153117 -0.028194398 0.009280213 -0.020328704 -0.01967857 -0.017796863 -0.0037022491 0.0076986155
0.019365124 -0.010287083 0.028521337 -0.00087597675 -0.008026251 -0.029353041 -0.034623638 -0.020083638
0.0019957807 0.008170883 0.035173748 0.010883404 0.02320174 -0.028446028 -0.006710608 0.0015607002
-0.032654777 0.03245321 0.019192226 0.027085202 0.013674688 -0.00847452 0.0037523885 0.012612327

board_fc.0.bias f4 [4]
00000000: 60cd b1bc 3ba3 e6bb bb3a ca3c 6eb6 06bb
-0.021704376 -0.0070385016 0.024686208 -0.0020555514

player_fc.0.weight f4 [4, 3]
00000000: 1ecd e23e d91e b6be 2456 a23d 72ad 0dbf
00000010: 117a 8a3e b18d 3abe e229 51be 3e5f f6bc
00000020: c897 413e 0651 aabe 7ba8 b73c 9be7 debe
0.44297117 -0.3557041 0.07926586 -0.5534278 0.27046254 -0.18218113 -0.20426133 -0.030074712
0.18905556 -0.3326494 0.022419205 -0.43536076

player_fc.0.bias f4 [4]
00000000: ebeb edbc 8a60 e13d 7ac1 073f b33e bebc
-0.029043159 0.110047415 0.53029597 -0.023223257

game_state_fc.0.weight f4 [4, 4]
00000000: d67f 8cbe 981a df3e 241a e63e 8078 ffbe
00000010: 34f7 b1be c4e4 bdbe f0d3 1e3d 6e69 a5be
00000020: c876 c23d a014 d63d 427d f43e 0cf0 70be
00000030: 3295 fe3e 6c7e 4b3e 30bc f0bd 6075 183d
-0.2744128 0.43574977 0.4494182 -0.49896622 -0.34758914 -0.37088597 0.038776338 -0.32307
0.09495312 0.10453153 0.47751814 -0.2352907 0.49723202 0.19872445 -0.11754644 0.037221313

game_state_fc.0.bias f4 [4]
00000000: 2e24 b5be 8c3f 2b3e c0ed 7cbe 08e9 35be
-0.35379165 0.1672346 -0.2470007 -0.17764676

fc.0.weight f4 [4, 12]
00000000: 3988 353e 7913 ba3d f53a c6bd 9342 933e
00000010: 2db9 55bc f3e7 09be 2eaa 85bd b254 2ebe
00000020: 3caa 823e b19d 5abe dc5d 833d 0450 643e
00000030: a512 843e 79c0 623e ee48 5c3e 8ef6 143e
00000040: d37d 333d 8ab9 7f3d 5d29 2fbe cc40 7e3e
00000050: 34ce 0abe 7199 d83c 79a3 db3d e209 5f3d
00000060: 851d e93c 76e5 fc3d 6e93 823d 7c42 793d
00000070: bdd6 b4bd 1570 84be e7dc 433e 71ff 15be
00000080: 1912 663d 3c62 85be 850d 8fbe 2868 843e
00000090: 439a 25be 85e6 8cbe 52c7 53be 073c 7cbe
000000a0: b9e0 de3d 7066 f4bd b4e0 b03e d9b5 95bc
000000b0: 437e 69bd 1a4a 2abe 42cf 823e 9329 6c3e
0.17727746 0.09085745 -0.09679214 0.2876173 -0.013044638 -0.13467388 -0.065266 -0.17024496
0.25520504 -0.21349217 0.06414387 0.22296149 0.25795475 0.22143735 0.21512195 0.14547178
0.043821167 0.062432803 -0.17105623 0.24829406 -0.13555223 0.026440354 0.10724539 0.054452784
0.028456459 0.12348454 0.06375776 0.06085442 -0.088300206 -0.25866762 0.19127236 -0.14648224
0.056169603 -0.2605151 -0.27940002 0.25860715 -0.16172127 -0.27519622 -0.20681503 -0.24632274
0.10882706 -0.11933601 0.34546435 -0.018275188 -0.05700518 -0.1662983 0.2554875 0.23062734

fc.0.bias f4 [4]
00000000: f05d 65be aa71 33be 5bb8 04bd cd71 963e
-0.22399116 -0.17523828 -0.032402378 0.29383698

fc.2.weight f4 [7, 4]
00000000: 1475 23be 0567 98bd 6d65 32be 6b69 e1be
00000010: f0f8 3abd f35f 5f3e 3cb4 ba3c 6636 6abe
00000020: ee2a b23e ef18 823e 5d50 d3be 4cd3 403f
00000030: 1439 1d3e 39dc babe d7e6 7fbd 6e10 233c
00000040: d463 75be 2474 d0be 5591 6b3e 5604 8bbe
00000050: e03b 6cbe 4448 c7be 234f fcbe 0973 5e3d
00000060: de24 d9be 6293 833e 21e9 e53e 20ca 0f3e
-0.1596263 -0.074415244 -0.17421503 -0.4402574 -0.04564756 0.21813945 0.02279102 -0.22872314
0.34798378 0.25409648 -0.4127225 0.75322413 0.15353805 -0.36496142 -0.062476005 0.009952648
-0.23963863 -0.40713608 0.23004659 -0.27151746 -0.23069715 -0.38922322 -0.49279127 0.054308925
-0.4241094 0.25698382 0.44904426 0.14041948

fc.2.bias f4 [7]
00000000: bc04 73be 1522 5e3d 62a6 84bc bb25 ce3e
00000010: 9cc8 be3e 3f64 c93d ca29 9ebe
-0.23732275 0.054231722 -0.016192619 0.4026316 0.37262428 0.098335735 -0.30891258
